…
rce":["model = LEDForConditionalGeneration.from_pretrained(model_name).to(DEVICE).eval()\n","\n","config = AutoConfig.from_pretrained(model_name)"]},{"cell_type":"code","execution_count":26,"metadata":{"id":"2Rd6TaL6U73M","colab":{"base_uri":"https://localhost:8080/"},"executionInfo":{"status":"ok","timestamp":1754013231259,"user_tz":300,"elapsed":21,"user":{"displayName":"Chris John","userId":"17204747059348754073"}},"outputId":"78612c13-d87c-4b78-e203-50c8c74d9fa1"},"outputs":[{"output_type":"stream","name":"stdout","text":["LEDForConditionalGeneration(\n","  (led): LEDModel(\n","    (shared): Embedding(50265, 768, padding_idx=1)\n","    (encoder): LEDEncoder(\n","      (embed_tokens): Embedding(50265, 768, padding_idx=1)\n","      (embed_positions): LEDLearnedPositionalEmbedding(16384, 768)\n","      (layers): ModuleList(\n","        (0-5): 6 x LEDEncoderLayer(\n","          (self_attn): LEDEncoderAttention(\n","            (longformer_self_attn): LEDEncoderSelfAttention(\n","              (query): Linear(in_features=768, out_features=768, bias=True)\n","              (key): Linear(in_features=768, out_features=768, bias=True)\n","              (value): Linear(in_features=768, out_features=768, bias=True)\n","              (query_global): Linear(in_features=768, out_features=768, bias=True)\n","              (key_global): Linear(in_features=768, out_features=768, bias=True)\n","              (value_global): Linear(in_features=768, out_features=768, bias=True)\n","            )\n","            (output): Linear(in_features=768, out_features=768, bias=True)\n","          )\n","          (self_attn_layer_norm): LayerNorm((768,), eps=1e-05, elementwise_affine=True)\n","          (activation_fn): GELUActivation()\n","          (fc1): Linear(in_features=768, out_features=3072, bias=True)\n","          (fc2): Linear(in_features=3072, out_features=768, bias=True)\n","          (final_layer_norm): LayerNorm((768,), eps=1e-05, elementwise_affine=True)\n","        )\n","      )\n","      (layernorm_embedding): LayerNorm((768,), eps=1e-05, elementwise_affine=True)\n","    )\n","    (decoder): LEDDecoder(\n","      (embed_tokens): Embedding(50265, 768, padding_idx=1)\n","      (embed_positions): LEDLearnedPositionalEmbedding(1024, 768)\n","      (layers): ModuleList(\n","        (0-5): 6 x LEDDecoderLayer(\n","          (self_attn): LEDDecoderAttention(\n","            (k_proj): Linear(in_features=768, out_features=768, bias=True)\n","            (v_proj): Linear(in_features=768, out_features=768, bias=True)\n","            (q_proj): Linear(in_features=768, out_features=768, bias=True)\n","            (out_proj): Linear(in_features=768, out_features=768, bias=True)\n","          )\n","          (activation_fn): GELUActivation()\n","          (self_attn_layer_norm): LayerNorm((768,), eps=1e-05, elementwise_affine=True)\n","          (encoder_attn): LEDDecoderAttention(\n","            (k_proj): Linear(in_features=768, out_features=768, bias=True)\n","            (v_proj): Linear(in_features=768, out_features=768, bias=True)\n","            (q_proj): Linear(in_features=768, out_features=768, bias=True)\n","            (out_proj): Linear(in_features=768, out_features=768, bias=True)\n","          )\n","          (encoder_attn_layer_norm): LayerNorm((768,), eps=1e-05, elementwise_affine=True)\n","          (fc1): Linear(in_features=768, out_features=3072, bias=True)\n","          (fc2): Linear(in_features=3072, out_features=768, bias=True)\n","          (final_layer_norm): LayerNorm((768,), eps=1e-05, elementwise_affine=True)\n","        )\n","      )\n","      (layernorm_embedding): LayerNorm((768,), eps=1e-05, elementwise_affine=True)\n","    )\n","  )\n","  (lm_head): Linear(in_features=768, out_features=50265, bias=False)\n",")\n"]}],"source":["print(model)"]},{"cell_type":"markdown","metadata":{"id":"GHaj9Wr0SATH"},"source":["## Test Base LED Without Fine Tuning"]},{"cell_type":"code","execution_count":27,"metadata":{"id":"xNX4rM_sRRiw","executionInfo":{"status":"ok","timestamp":1754013235563,"user_tz":300,"elapsed":6,"user":{"displayName":"Chris John","userId":"172
…
